models/model.pth (torch, 17103 bytes, 4 tensors)

linear.weight f4 [256, 11]
00000000: 30a0 d8bc ecf9 61be 74de 88be 7e18 2f3e
00000010: 376f 27be a58f 85be ad38 f03d 10b8 86be
00000020: 3144 863d cd07 293e a61b 19be bb6d 20bf
00000030: 9240 86be 88e1 163f 2a81 48be b303 fe3b
00000040: c13a 183e 5480 fc3c dac0 91bd 8bfe 0a3e
00000050: a2d8 2e3e 5f28 a9bc c672 bd3e ae1f 09be
00000060: e78c c63e 2763 773e 6ab9 78bd 6e34 ac3e
00000070: b8d6 8fbe 42ba 79be 0cfe 80be 5b23 d93d
00000080: e503 473e 21a2 f73c d294 993e 6ac1 a23e
00000090: 7e36 613c 5136 763d 6d76 863e 4a7f ad3e
000000a0: 01c3 e5bd f5d9 57be 8290 30be f451 55be
000000b0: 36cf 083e 80d1 3b3e ad21 063e 4834 883c
000000c0: 8888 f03e 2e96 eb3e 0ba6 d23e bfc8 2ebe
000000d0: b4fa b43d f022 c6be 0a60 89be dace babe
000000e0: 180f 083f 19b9 0abf 7788 0d3d 6541 013d
000000f0: 99ad 7abe 4fa2 69be b007 e1bd efa0 9b3c
00000100: d403 48be 2850 34bb 458a 49bc 66e6 b9bc
00000110: 5d8c 73be 11e8 913e 5db9 7ebe 42fb 02bf
00000120: 8c3d abbe 75a2 acbd e7d9 393e 5a57 9dbe
00000130: d9da a6be 0842 debe fd73 8e3e b23e 9cbd
00000140: 8423 6bbe b241 043f 2479 a53e 9880 d7be
00000150: 49a8 573e 79d4 0cbf d803 8a3e b514 d3be
00000160: 2010 81b7 8e1f d1be c3b5 123f e350 d63e
00000170: b6b8 b2bc 5ed5 0e3f 93dd 263e ea24 6dbe
00000180: 414b 6dbd ba2c a23e 1f12 2d3e fb70 a63d
00000190: 6034 d33e 6dec a83e 784f 20bd aef7 b83d
000001a0: 93c0 a2be 8f15 23be 8e5a 6b3d 6eb0 5c3d
000001b0: c503 abbe 4e44 9f3d 886a bfbe 4694 4abe
000001c0: 7d01 9e3e 4db3 cebd c1f2 b8bd bba3 0abd
000001d0: 2d43 52be a152 62be bed2 8cbe 08b7 71bd
000001e0: b2b0 b83b 6452 c7be 5bac 533e e339 a03d
000001f0: bef3 0e3e 40dd 223e 3c87 13bf c590 b9be
00000200: fc7a a93e 584b 90be a07b d9be e06c 743e
00000210: 6f13 97bd 7d76 a33e 92cb 8b3d 63a2 313d
00000220: 3763 a23e 6e88 c13e 91f9 ba3e ca33 00be
00000230: 7d23 d73d 6985 80be f904 52be 8cec 73bd
00000240: 466a febd d029 053d c947 2fbe b41b 7ebe
00000250: d0f6 32bd 4086 573d a2df 9abd b004 6a3d
00000260: b81d 093e d896 6cbe 0e33 a03e cb39 d13d
00000270: b9f5 743e e919 d43e 4aa3 623e 2d34 863e
00000280: 9e97 f63e d454 7f3c 425a 6cbe 148c 1cbd
00000290: 92e5 7bbe e7b0 27bd e135 5e3e e07f 54be
000002a0: 56b1 6fbe 0a0e 223e 1718 3c3b a6d1 8cbe
000002b0: bc7e 04be f04f 90be d0c8 24be 2048 f5bd
000002c0: ab14 11bc b617 11bd 7d4e 2d3e 6a1a 363d
000002d0: 5963 13be fc16 f53c 3f72 7cbe af6f 06be
000002e0: b083 b73c f7b8 21bd 17d6 8dbe c1d1 85be
000002f0: d71f e33d a757 37bc 49c2 b83d e466 fc3d
00000300: 9113 fcbe 6d70 3bbf 9269 b3bd 0665 803e
00000310: 83da b53e e133 febc 7872 86be 3532 273e
00000320: 0f9f 85bd aef4 e0bc 4485 85be 65a0 ad3d
00000330: 18ad 60be e221 00bb f59b ea3d 1004 bc3e
00000340: 7ed9 163c bbc0 303e 6920 1ebe 2b60 07be
00000350: 1b16 0f3f 8375 b23d 4161 01be c06b c8be
00000360: 60f3 503e ac85 d4be 682b 703d 6f44 b63e
00000370: ff9d d73e 51aa 01bf 4140 a7bc 7b2f 933e
00000380: e8e9 153e 8a14 84be 1fd3 e6be 9c8b 6b3e
00000390: ecb9 66be 8a7d f2bc 309d bf3e 991a 8bbe
000003a0: cead f1be 9e3e 393f 9d73 bbbd 53af 89bd
000003b0: 76ca 38be 7e6b 1cbf 14a3 fb3d aded 7c3e
000003c0: a1b2 8f3e c5de bfbe 2b04 213e afc8 33be
000003d0: 77a3 e13e d6ec d7bd 8f61 983e 0ae9 353d
000003e0: 8ecf 26be c8a7 cfbe 7b35 953c a00e 9ebe
000003f0: c4a2 03bd 2afa d0be 92d1 d33e 7ec4 613d
-0.02644357 -0.22067994 -0.26732218 0.17099187 -0.16351019 -0.26086155 0.1172956 -0.26312304
0.06555975 0.16506882 -0.14951953 -0.62667435 -0.26221138 0.58937883 -0.19580522 0.007751906
0.14866163 0.03082291 -0.07116862 0.13573663 0.17074826 -0.020649133 0.37001628 -0.13390991
0.38779375 0.24158917 -0.0607237 0.3363375 -0.28093505 -0.24387458 -0.25193822 0.10602447
0.1943508 0.030228676 0.29996353 0.31788188 0.013745902 0.060110394 0.26262227 0.33886176
-0.11218835 -0.21079238 -0.17242625 -0.20832044 0.13360295 0.18341637 0.13098784 0.016626492
0.46979165 0.46013016 0.41142306 -0.17068766 0.0883688 -0.3869853 -0.26831084 -0.3648594
0.5314803 -0.54188687 0.03455397 0.031556506 -0.24480285 -0.22815822 -0.109877944 0.018997638
-0.1953271 -0.0027513597 -0.012301032 -0.02269287 -0.23784013 0.28497365 -0.24875398 -0.5116464
-0.33445394 -0.08429424 0.1814953 -0.30730706 -0.32588843 -0.43409753 0.27822867 -0.07629146
-0.22962767 0.51662743 0.32318985 -0.42090297 0.2106029 -0.5501171 0.26956058 -0.41226736
-1.5385507e-05 -0.40844387 0.57308596 0.41858587 -0.021816593 0.5579432 0.16295461 -0.23158613
-0.057933096 0.3167475 0.16901444 0.08127018 0.41250896 0.3299288 -0.039138287 0.09031616
-0.31787547 -0.15926193 0.057459407 0.053879194 -0.33401313 0.077767 -0.37385964 -0.19783124
0.3086051 -0.10092793 -0.09030677 -0.03384755 -0.20533438 -0.22101833 -0.27504534 -0.059012443
0.005636298 -0.38930047 0.20671217 0.07823541 0.13960168 0.15904713 -0.57628226 -0.36243263
0.33101642 -0.28182483 -0.4247713 0.23869658 -0.073767535 0.31926337 0.06825937 0.043367755
0.3171632 0.377994 0.3651853 -0.12519756 0.10504816 -0.25101784 -0.2050971 -0.05955176
-0.12422614 0.03251058 -0.17117228 -0.24815255 -0.04369241 0.052618265 -0.07562186 0.057133377
0.13390243 -0.23104417 0.31288952 0.10216101 0.23921861 0.41426018 0.22132602 0.26211682
0.4816255 0.015584189 -0.23081306 -0.038219526 -0.24599293 -0.04094019 0.2170024 -0.20751905
-0.23407492 0.15825668 0.0028700882 -0.275037 -0.1293897 -0.28185987 -0.16092229 -0.119766474
-0.008855025 -0.035423003 0.16924472 0.044458784 -0.14393367 0.029918186 -0.24652956 -0.13128541
0.02240166 -0.039483037 -0.277024 -0.26136592 0.11090057 -0.011190332 0.09021432 0.12324312
-0.49233678 -0.73218423 -0.0876037 0.25077075 0.35518274 -0.031030597 -0.26259208 0.16327746
-0.06524479 -0.027460422 -0.26078236 0.084778585 -0.2194103 -0.0019551446 0.11455528 0.3672185
0.009207128 0.17261021 -0.15442051 -0.13220279 0.55893105 0.0871382 -0.12634756 -0.39144707
0.2040534 -0.41508234 0.058635145 0.35599086 0.4211273 -0.5065051 -0.02041638 0.28747162
0.1464001 -0.2579692 -0.45082948 0.23002476 -0.22531861 -0.029600877 0.37424612 -0.2716873
-0.47202915 0.7236117 -0.09152911 -0.067228936 -0.18045983 -0.6110152 0.12286964 0.24700041
0.2806597 -0.37474647 0.15724246 -0.17557023 0.44070026 -0.1054322 0.2976193 0.044411696
-0.16290113 -0.40557694 0.018213978 -0.30870533 -0.032137647 -0.4081586 0.41370827 0.05511903

linear.bias f4 [256]
00000000: fa2c e9be f34f eb3e 897c e2bd 11cf 5cbd
00000010: e3d6 07be 0243 ec3e d37b 6a3c e716 b1bd
00000020: 5950 aabe c96f 2abe 198e c7be 7cb9 7abd
00000030: e135 13be 0450 83be 5ae5 87be d4c1 abbe
00000040: e966 c8be b2e7 883e e1e6 adbe 409b 2abe
00000050: e7de 83bd 97a3 043f 3bb0 05be 7913 a63c
00000060: bb16 513e 5707 bbbd fdcf b53d 96a2 b2bd
00000070: 1ea7 14bb bf8a 2bbe fffd 733e 84ee c63d
00000080: 7d53 5dbb 949f fbbd 5f29 04be fdc9 bcbe
00000090: ae7f 0bbe 97ee adbe 07ec d33e d50b 1b3e
000000a0: 9937 98be 48d4 eabe 4603 013e 0dd9 48be
000000b0: 90ad 0dbe 42c2 b8bd 9672 1abb 24e5 89be
000000c0: 104c 9d3d a63a c1bd c9df 85be 4cd9 c23e
000000d0: 5c2d 663d a06f bf3d 02ff 023b e962 06be
000000e0: 4d65 993d ad10 48be bdc3 93be 369a 98bd
000000f0: 7eae 41be 3f18 86bd b6fb 1fbe 90db 2abe
00000100: a10b d7bc f7e7 bb3d f144 05be 5f68 eb3c
00000110: 53f5 13be 4f87 ff3e 22ab febd f46d 1dbe
00000120: ce6c b33d 723a f2bc c734 acbe d8f8 1dbe
00000130: b49f d6bd f403 513c 084d 29be 38d2 1c3e
00000140: 8097 4fbe b0ee adbd cdc3 17be 4350 0cbe
00000150: 35da 6fbd 9a7d 96be 64dd 8abe e741 aabb
00000160: 0dfd 63bd 1351 88bc 0ade 4abe 2df1 9ebe
00000170: 3e2d 42be 2b97 a2bd c4ba 34be 6ab8 a2be
00000180: d6d3 07bf 9649 4d3e c6af 21be f7e9 f1bc
00000190: c32c b9be 4cc1 87be 1059 57be 8c1d 33be
000001a0: ef7b 613d 3e4e cc3e 97e2 debd 9eb8 e13d
000001b0: 627c dfbd 2c81 5abe c77e edbe 1571 82bd
000001c0: 41ea 0fbe 11a5 21be 0668 383e 68ba d6be
000001d0: 31bb 3abe 1f73 753d ea8b 3b3c 01d5 03be
000001e0: d81e 5bbe 5053 8f3e 63c7 72be 6626 8b3d
000001f0: 1081 883d ca9f 953d 00a8 1f3f 897a 6fbe
00000200: 3909 f13c abe7 473d 0113 67be 66e4 5cbe
00000210: 53e6 85be 9c15 813e 2c1e 2c3d 8179 6cbd
00000220: 9112 99be 674d 77bd ea87 d23e 1f4d 15bd
00000230: 6570 8dbe 846c f4bd 0b08 99be 8db1 28be
00000240: 44c4 9b3d e570 50be ace1 b5be e9cd aebd
00000250: 6ab5 7ebe cd23 08be 2ee4 1fbd 162e 2cbe
00000260: 5e33 00be dcaa 4d3e ec52 acbe 3b65 14be
00000270: 282a dabc 8a26 b6be ece8 0bbe ce8e 163e
00000280: f794 20be f74c 41be ab2d f63e 9e1d 4bbe
00000290: e4ca a4be abef 8ebe b3cd 87be f5e8 3e3e
000002a0: 471d a93e 04f5 18be ff91 3ebe 328a 3fbe
000002b0: fe60 c53e 29da c03a e712 a6be f12a b63e
000002c0: 1450 5b3e 633a 87be 2583 b73d 9f3c 9c3e
000002d0: 0681 03be 7103 80be 941c 9d3e 95db aabe
000002e0: 03fb acbd f3be 73be 0e6d 92bd 7e2d 5e3e
000002f0: d136 a4be 2070 ffbd 154b 41be a4ab 0bbe
00000300: bd49 09bd 6337 05be f559 aa3d 6863 82be
00000310: ee67 babd 766e 7fbe 15a9 06bd e0b3 21bd
00000320: 2c28 17bc 8dfa 17be 3449 a0be d6f5 31be
00000330: 9690 8d3e d5f3 783e 1dd4 30be bbcb e4bd
00000340: 23b8 92be 8ff2 e43d 8893 d33d 10d9 01be
00000350: d035 af3c 94ae e3bd 0334 7abe 6392 aabe
00000360: d429 d23d d714 153e 0fce c7be 823d 2abe
00000370: eceb 7c3e da94 75be 0ed6 31be 1c34 74be
00000380: 943c 99be 58b9 9a3c 3028 b93d cd5b 08bd
00000390: d079 24be 5686 ffbd 47e1 fbbd 6541 8a3e
000003a0: 8195 a13e 2af7 1dbe 97a3 043f 4791 a3be
000003b0: 758f c7bd 5e59 bfbd 9280 cabd 7f0e 923e
000003c0: cca1 a6bd 55eb 45be 2d92 e5bd 4feb 48be
000003d0: b68e d73d e6b5 c83d 2fc0 57bc 898f d53e
000003e0: 1220 2cbe 7867 10be 35ba d53e 9ef2 00bd
000003f0: cf9e 54be f047 e93c 1517 a13d f290 98be
-0.45542127 0.45959434 -0.110589094 -0.05390841 -0.13265567 0.46144873 0.014311749 -0.086469464
-0.33264425 -0.16644205 -0.389756 -0.061212048 -0.14376022 -0.25646985 -0.2654217 -0.33546317
-0.39141014 0.2673927 -0.3396521 -0.16660786 -0.064389996 0.5181212 -0.13055508 0.020272957
0.20418827 -0.09132259 0.08877561 -0.08722417 -0.0022682617 -0.16752146 0.2382736 0.09713462
-0.0033771687 -0.122862965 -0.12906407 -0.36872855 -0.13622925 -0.33971092 0.41391012 0.15141232
-0.29729918 -0.45865083 0.12598905 -0.19614048 -0.1383574 -0.09021427 -0.0023566834 -0.26932633
0.076805234 -0.094350144 -0.26147297 0.3805641 0.0561956 0.09347463 0.0019988422 -0.13123669
0.07490025 -0.19537611 -0.28860274 -0.074512884 -0.1891422 -0.06547593 -0.15623364 -0.16685319
-0.026250662 0.09175103 -0.1301458 0.028736291 -0.14449053 0.4990792 -0.12434985 -0.15373975
0.08760987 -0.029568885 -0.33634016 -0.15426958 -0.1047968 0.01275729 -0.16533291 0.15314567
-0.20272636 -0.08492792 -0.14820786 -0.13702492 -0.058557708 -0.293927 -0.27122033 -0.0051958445
-0.05566125 -0.016640222 -0.19811264 -0.31043378 -0.18962571 -0.07938989 -0.1764937 -0.31781322
-0.5305761 0.20047602 -0.15789708 -0.029530508 -0.36166963 -0.2651466 -0.21030068 -0.1749174
0.055049833 0.39903444 -0.10883062 0.11021541 -0.10912396 -0.21338338 -0.46385786 -0.06369225
-0.14054205 -0.15785624 0.18008432 -0.41939092 -0.1823547 0.05992424 0.011446932 -0.12874223
-0.21398485 0.2799325 -0.23708872 0.06794433 0.06665242 0.07305868 0.6236572 -0.23386587
0.029423343 0.04880492 -0.22565843 -0.21571502 -0.26152286 0.252118 0.04202096 -0.057733063
-0.29896978 -0.06037655 0.4111932 -0.0364505 -0.27624813 -0.1193476 -0.2988895 -0.1647398
0.07605794 -0.20355566 -0.35523736 -0.08535368 -0.24873891 -0.13294907 -0.03903597 -0.16814455
-0.12519595 0.20084709 -0.33657014 -0.14491741 -0.02663143 -0.35576278 -0.13663071 0.14702913
-0.15681826 -0.18877016 0.48081717 -0.19835517 -0.32186043 -0.27917227 -0.26524124 0.18643554
0.3303015 -0.14937216 -0.1861038 -0.18705061 0.38550562 0.0014713454 -0.32436296 0.35579637
0.21417266 -0.26411733 0.08960561 0.30515 -0.12842187 -0.25002626 0.30685866 -0.33370653
-0.08446314 -0.2380331 -0.07149707 0.21697041 -0.32073072 -0.12472558 -0.18876298 -0.13639694
-0.033517588 -0.1300941 0.08317939 -0.25466466 -0.09101854 -0.24944481 -0.032876093 -0.039478183
-0.009225886 -0.14841671 -0.3130585 -0.17378935 0.27649373 0.24311765 -0.17268415 -0.11171671
-0.2865611 0.11179077 0.10330874 -0.12680459 0.021387964 -0.111172825 -0.24433903 -0.3331481
0.10261884 0.14558731 -0.39024398 -0.16625026 0.24699372 -0.23982564 -0.17366812 -0.23848003
-0.2992903 0.018887207 0.09040868 -0.033290673 -0.16062093 -0.124767944 -0.122988276 0.27003017
0.31559375 -0.15426317 0.5181212 -0.31946775 -0.09744159 -0.09343217 -0.09887804 0.28526685
-0.08136329 -0.19328053 -0.112095214 -0.19621013 0.10525267 0.098003194 -0.013168379 0.4171107
-0.16809109 -0.1410197 0.41743627 -0.031481378 -0.20763706 0.028476685 0.07865731 -0.29798084

linear1.weight f4 [3, 256]
00000000: 2c95 7b3c d0a7 923d e4b1 03bd 8261 e0bd
00000010: 0d3f 55be 8486 133d 8887 553e 509f ecbd
00000020: 3ff1 83bd 186f 1ebe 3a1f d83c 375c 473e
00000030: ebab 5abe 3887 0fbd 2add 67be 6c8b e1bb
00000040: 955f bb3c 2a9e 023e 625b 9d3d 0435 663e
00000050: 84b8 623e 8f2d bb3e 1fac 4d3d 6d64 bd3e
00000060: 3614 1a3d 5ca9 ee3d 2959 713e 263c 683e
00000070: 2b80 49bd 4157 ebbc e4ab 003e ae9b 903e
00000080: 756f 603e 3454 47bc b268 673d 7c7c 3d3d
00000090: 26d1 dfbc d5ca 763d 40c4 743e a17f 5e3e
000000a0: a2e4 7b3b 9acf 6abe 5bce 373e 021f cfbe
000000b0: da63 ef3a 3253 2bbe 97ba 3d3e e8ae dc3b
000000c0: 07a1 573d 9c53 c8bc 2036 76bc 9db9 6d3e
000000d0: ce2e 33be bfac a03d 8b2c 7abd 5bec c4bd
000000e0: 5e3f 563e 1066 b0be e3da 7a3d 940a 26be
000000f0: bf92 29be 2d9a 513e cac0 3d3e 7644 64bd
00000100: 48df 36be 4e55 7e3d 9e4b 12be 0fa6 c1bd
00000110: a93f 96bc 4889 a23e 9e31 ee3d 255e f3be
00000120: f1ac 7ebd f3f3 f1bd 42f3 8ebe 77f7 923e
00000130: bcf1 52bd 4319 1f3e 84c1 9e3d 774e 933e
00000140: 9b8f 2c3d ec80 a7bd 4fb9 f2bd af21 593c
00000150: d879 653e f072 83bc 8e33 2fbe d872 16be
00000160: c9eb 5bbd 1661 cc3e 72df 0d3d 8f68 90bd
00000170: a1fa cfbd 9073 933d 33f2 dd3c fc1c b83d
00000180: 6058 143e 4194 a73e b071 c1bd 4687 2d3e
00000190: 340a fc3d a928 dcbd b99e 13be a29e 303e
000001a0: 1bd6 713e cc9d 483e 1d9b 26bd cf04 e03d
000001b0: 85dd 4dbe 1624 4bbc a611 1abd 8b6c 81be
000001c0: 7a6f d3be e97b 7e3e bae4 d33d d6b6 f9bd
000001d0: e49e 8abe e2f0 b03e 1edd a03c b6c6 0abc
000001e0: 0e19 18bd c764 e33d da96 25be db7e 83be
000001f0: eda9 70bc 6c70 9d3d a7d8 f93d 55f0 d13e
00000200: 18db 7c3e 77ac f53c 99b3 843c adf3 66be
00000210: 86ad 733e 9736 c3bd 7c95 353d 71ce ed3d
00000220: 7d10 c7bc 4ded 5cbe 1dfd 0b3e ace4 86bd
00000230: 3106 a3be 7da4 213e cde3 2fbe 6a98 93bd
00000240: e766 8d3d 0c7c 5c3d 7b3b 5b3e 7581 e63d
00000250: 8de4 7a3c da75 843e c843 f83c 6fbd 4cbe
00000260: c33a 273e e353 4f3e 9bb4 a83d c468 f6bd
00000270: 1d37 fdbe 43c9 333c 0d3b 5bbe c17e 8fbd
00000280: 748e 39bd 599e ec3d f67f 6e3e 1e8d 0c3b
00000290: 153e e1bb f04c 41bb 992e 6ebd 2368 ec3e
000002a0: 4b58 883e 4d9a 25bd 578c 503c d5e1 febd
000002b0: 0f2c c33c 6dad 6e3d 5659 b13d 9804 03bd
000002c0: 8d4b 2dbe 82da 94bd 8760 953e 8b88 febd
000002d0: 4145 a5bd 2322 b6bc 889a fc3d bb13 3b3d
000002e0: 7615 873c 34fb 093d c51a 433d 2b7d 843e
000002f0: 7e8a 1e3d bdca 9e3e 6e46 1b3d 30b3 c93c
00000300: 6109 3c3e d77d 4c3d 848d fb3d 810c 48be
00000310: 3e98 34be df77 6a3c 5a5f 993d 7798 56bd
00000320: a70e 8cbe fe99 b0bd 6116 8fbc a746 15be
00000330: badd 9c3b 6aee 123e 517b 92bd 09ce 04be
00000340: f0e0 38be 80fb 873e a5af 31be c8ed 983c
00000350: 98cc 383e d943 0ebe fe14 24be 2912 e5bc
00000360: 2682 153d dcb0 3f3d d60a 63be 7340 9fbd
00000370: 652c 2f3e 0174 1c3e 1b1e c7bc 5afc 6dbd
00000380: b0bc 8abe c290 a4be 1286 11be 50ca 86be
00000390: d633 c43d 4aea 51bb 5826 6b3e 1035 d73d
000003a0: 867f 453e 172a 2d3e 0c00 2c3e ac79 493e
000003b0: c777 1c3e f0d8 35be 5d33 91be e7d2 6dbe
000003c0: ef88 d23d 78a6 44bd 8e15 52bb 6bad 49bd
000003d0: 2aab 44bd c15c f8bd abac 583e d43f 473e
000003e0: 5955 2abe ab7b aa3d 7876 c03d 20da a2bd
000003f0: 00fc 04b9 239e 283e 88d3 983c 8cd8 8cbe
0.01535539 0.07160914 -0.03215207 -0.10956098 -0.20824833 0.036016956 0.20852482 -0.11553824
-0.064424984 -0.15472066 0.026382077 0.19468771 -0.21354644 -0.035041064 -0.22642961 -0.0068830755
0.022872726 0.12755647 0.076834455 0.22481161 0.221407 0.36558196 0.050212976 0.3699068
0.03761693 0.116533965 0.23569168 0.22679195 -0.049194496 -0.02872813 0.12565571 0.28243774
0.21917517 -0.012166072 0.05649633 0.046261296 -0.02732141 0.06025203 0.23902988 0.21728374
0.0038435836 -0.22930756 0.17949812 -0.40453345 0.0018264011 -0.16730955 0.1852821 0.0067347176
0.052643802 -0.02445393 -0.015027553 0.23215337 -0.17498323 0.07845449 -0.061077636 -0.09615394
0.2092261 -0.34452868 0.061243903 -0.16214973 -0.16559885 0.2046897 0.18530574 -0.055729352
-0.17858613 0.06209307 -0.14286658 -0.09455501 -0.018340902 0.31745362 0.116305575 -0.47532764
-0.06217665 -0.11814108 -0.27919966 0.28704426 -0.051500067 0.1553698 0.07751754 0.287708
0.04212914 -0.08178887 -0.11851751 0.01325266 0.22409761 -0.016046017 -0.1710951 -0.14692247
-0.05369166 0.3991782 0.034636922 -0.07051193 -0.101552255 0.07199776 0.027093029 0.08989903
0.14486837 0.32730296 -0.09445512 0.16946134 0.123066336 -0.10749943 -0.14416017 0.17248014
0.23616831 0.19591445 -0.04067527 0.10938417 -0.20104034 -0.01239874 -0.037614487 -0.25278124
-0.41295987 0.24851955 0.103463605 -0.12193076 -0.2707435 0.3455878 0.019636687 -0.008470228
-0.03713327 0.11103206 -0.16170827 -0.2568272 -0.014688951 0.076874584 0.12199526 0.4100367
0.24692953 0.029989464 0.01619892 -0.22553892 0.23796663 -0.095318966 0.044332013 0.11611641
-0.024299854 -0.21574898 0.13670774 -0.065865844 -0.3184066 0.15785404 -0.17176743 -0.07206805
0.06904393 0.053829238 0.21409409 0.11255161 0.01531328 0.25871164 0.030305758 -0.19994138
0.1633101 0.20246844 0.08237573 -0.12031701 -0.4945611 0.0109732775 -0.21409245 -0.07006598
-0.04530187 0.1155364 0.23291 0.0021446417 -0.006873856 -0.0029495321 -0.058149908 0.461732
0.26629862 -0.040430356 0.012728772 -0.12445418 0.02382472 0.05827086 0.086596176 -0.031986803
-0.16923352 -0.072682396 0.29175207 -0.12428387 -0.0806985 -0.022233075 0.12334162 0.045673113
0.016489726 0.03368683 0.04763295 0.25876746 0.038706295 0.31014052 0.037908964 0.024621576
0.18362953 0.049924698 0.12282851 -0.1953602 -0.17636201 0.014310806 0.0748889 -0.052391496
-0.2735493 -0.08623122 -0.017466726 -0.14577733 0.004787174 0.1434876 -0.07152427 -0.12969221
-0.18054557 0.26559067 -0.1735216 0.01866807 0.18046796 -0.1389307 -0.16023633 -0.027962761
0.036501072 0.046799526 -0.22172102 -0.077759646 0.17106779 0.15278627 -0.024306348 -0.05810199
-0.27097082 -0.3214169 -0.142113 -0.26326227 0.095801994 -0.0032030516 0.22963846 0.10508168
0.19286928 0.16910587 0.16796893 0.1967532 0.15280066 -0.17758536 -0.283595 -0.23224984
0.10280024 -0.04801032 -0.0032056305 -0.04923765 -0.048014797 -0.121270664 0.21159618 0.19457942
-0.1663412 0.08324369 0.09397596 -0.0795176 -0.00012682378 0.16466574 0.018655553 -0.27508962

linear1.bias f4 [3]
00000000: d8d6 05be 0257 fcbd f04a 663e
-0.13070238 -0.12321283 0.22489524
